model.pth (torch_old, 659123 bytes, 6 tensors)

fc1.weight f4 [240, 561]
00000000: 9795 d43c d2c5 1e3d cd46 b53b 04c2 b43c
00000010: b603 34bd 4f2d bf3c 491a 2f3c f5ad 0dbd
00000020: 015a 03bd 92e8 9b3c 603b 093d a523 0d3b
00000030: 3195 e4bc 00f9 25bc 41be adbb 09fe b7bc
00000040: b0ad 08bd e862 7f3c 8b6a a9bb 2be1 1cbc
00000050: 91dc 8a3c abef 5ebc a43e fa3c a69d 1d3d
00000060: e88e 9d3c 58bc 0fbd 12d0 d33c 3b6d 9cbc
00000070: 71bb 053d 9086 87bc 1dbf 6b3c 7e52 afbc
00000080: dca1 67bc aa63 0bbd 6982 ebbc e4f5 00bc
00000090: 1c29 ebbb 89e0 10bd 7b16 243d 87e8 a8bc
000000a0: 213d f4bc 6bde ad3b 3056 cc3b 4ff5 ed3c
000000b0: 5531 ddbc 6697 05bd 3676 87bc 342e fbbc
000000c0: 7582 fc3c 8177 bb3c cdbb 92bc ab43 a6bc
000000d0: abe9 813c 2025 0fbd 2a59 c4bb 512f b5bc
000000e0: 98eb 9dbc f993 edbc 4ff7 543b 3f02 0ebd
000000f0: d8fc 6fbc d8c8 153c 0306 52bc 3d44 083d
00000100: e630 a5bc fec7 22bd 0fce 4fbc 3532 fdbc
00000110: 5fd1 213d 583f 5e3c 03e5 bebc d9ff 63bb
00000120: 34e1 1b3d 3a67 3a3c 51a3 a7bc 7bd6 29bd
00000130: c338 d0bc 0518 4b3d 1a73 60bc 8223 1dbd
00000140: dd11 1fbd 43e1 96bc 4fb7 1d3c a096 ed3c
00000150: ec23 883b 22fd 7cba 68eb b8bc b676 21bc
00000160: 23d7 d93c 5147 123d d6de fe3b efd3 033d
00000170: 8c87 733c ffd6 ed3c 6c87 8d3c 1410 0cbc
00000180: dc63 a83c b293 a2bc 9918 22bd 1d5c 07bd
00000190: f6de 96bc fa7e fcbb 989e dcbc 1ce8 8ebc
000001a0: 9cf9 72bc 9952 513c acdb af3c be9b 16bd
000001b0: 3c25 e23c 535f 9d3c 7272 e7bb 19e2 efbc
000001c0: e8e8 95bc 2d5f e83c 7cef 523c a2ce 243c
000001d0: e7c1 89bc 6711 e83c 61a5 4f3c 214e e73c
000001e0: 176e 253d f1b8 593c bb6a fa3b 2b55 05bb
000001f0: fade 043d 1f0d 2bbd efee 533c 4353 20bd
00000200: 6278 a73c c3bb 033c 4537 223d 2c12 0fbd
00000210: 9cf6 f6bc 6706 303d 8541 1ebd a02a 1bbd
00000220: 6ca5 26bd 17e3 c83a 9124 e63c 6122 9ebc
00000230: 5662 08bc b7b4 eabc ab18 c4bb 927a 35bd
00000240: 97c1 e0bc 5359 ef3c f765 15bd 0d23 9fbb
00000250: 4dd6 d3bc fab0 95bc 141c 653c 9c8e 293d
00000260: 3d11 9bbc 75a1 b93b 8c14 bdbc 2000 243d
00000270: 72bc 1b3c 4ac0 043d 3be6 103d 5b24 18bd
00000280: 31d2 843c 764c 1fbd 1fc6 72bc 5878 f3bc
00000290: d708 07bd 53bc 7abc 7700 e53b 4fe0 11bb
000002a0: 431f aebb 89cc 00bc 2893 ec3c c526 01bd
000002b0: 6b16 81bb 6a8b d9bc c8b6 173d 61ed 0d3c
000002c0: e6ef 3f3c 46a4 01bd 638e 4d3b 045a 25bd
000002d0: 6b62 06bd ef60 793c d055 fc3c 36f5 84bc
000002e0: 2353 55bc a27b dfbc 7faf 6fbc 8dd9 483c
000002f0: 6ec7 f9bc fbc9 b23c 2a97 cd3a 680a 163d
00000300: fce6 583c b874 653c 3960 92bc 96be 21bd
00000310: 4956 363d 86b8 40bd 37a4 25bc 1bd8 b53c
00000320: 74be 9d3b 3934 cfbc fc32 af3c 71a7 1cbd
00000330: 61a2 f63c f5ac 093d 4ad3 9abc 8e24 203d
00000340: 3b76 f4bc 707f 953c 7bac 94bc d086 213c
00000350: b769 6cbc b66b b23c f724 d03c e290 25bd
00000360: c945 cdbc 91d5 abbc bc28 a6bc cc80 acbc
00000370: e10a 213c 8759 16b9 6925 f33c 4f22 c73c
00000380: b4df efbc 2bf4 313c 59e4 833b 5cad 21bd
00000390: 9747 ec3c c50b 043d 6e32 09bc 2b10 143d
000003a0: 13a9 443c 06b9 803c fa4f c03c 1fb1 ad3c
000003b0: 28b2 17bd 832a e33c 3696 063d 74ff e5bc
000003c0: 8007 27bd f299 3e3c 49e9 12bd 579e fbbc
000003d0: 37f1 683c 13d8 603c d600 5abc c2d0 f9bc
000003e0: f745 25bd 9bb5 e6bc 88ef ef3c 3d33 243d
000003f0: ea28 a9bc 0525 e2b9 df07 e53c 0260 e9bb
0.025950236 0.038762875 0.0055321218 0.02206517 -0.04394885 0.023337035 0.010687419 -0.034589726
-0.032068256 0.019031797 0.03350389 0.0021536138 -0.027903171 -0.010130167 -0.005302221 -0.02246
-0.033368766 0.015587546 -0.0051701716 -0.009575169 0.016950877 -0.013606946 0.030547448 0.038480423
0.019233182 -0.035091728 0.025856052 -0.019095054 0.03264946 -0.016543657 0.014388827 -0.02140164
-0.014137711 -0.034030594 -0.028748708 -0.007871125 -0.0071765315 -0.035370383 0.0400605 -0.02061869
-0.029814305 0.0053060553 0.0062358603 0.029047636 -0.027001062 -0.032615088 -0.01653586 -0.03066168
0.030823926 0.022884132 -0.017911816 -0.020295938 0.015858492 -0.034947515 -0.0059920745 -0.022117289
-0.019277379 -0.029001223 0.003249604 -0.03467011 -0.014647685 0.009142123 -0.012818816 0.033268202
-0.020164918 -0.03974151 -0.012683406 -0.03090773 0.039506312 0.013564907 -0.02330256 -0.0034789948
0.038056567 0.01137715 -0.020463618 -0.04146431 -0.025417691 0.049583454 -0.013699317 -0.03836394
-0.038835395 -0.01841796 0.009626224 0.029002488 0.004154673 -0.0009650757 -0.022573188 -0.009854963
0.026591843 0.035712544 0.007778029 0.032184538 0.01486386 0.029033182 0.017276488 -0.008548755
0.02055543 -0.019845817 -0.03957424 -0.03304683 -0.018416863 -0.0077055665 -0.026931092 -0.017444663
-0.014830019 0.0127760405 0.021467052 -0.03676962 0.027605645 0.019210493 -0.0070632035 -0.029282616
-0.018299535 0.028365696 0.01287448 0.010059031 -0.016816093 0.02832861 0.012673707 0.028235497
0.040388193 0.013288722 0.007642118 -0.0020344954 0.03243921 -0.04176056 0.012935384 -0.039141905
0.020443145 0.008040371 0.03960349 -0.03492944 -0.03014689 0.042974856 -0.038636703 -0.037882447
-0.040685102 0.0015326467 0.028093608 -0.019303503 -0.008324226 -0.028650625 -0.005984386 -0.044306345
-0.02743606 0.029217398 -0.036474194 -0.0048564733 -0.025859023 -0.018272866 0.013983745 0.04139577
-0.018929118 0.005664999 -0.023081087 0.04003918 0.009505378 0.032409944 0.035375815 -0.037144046
0.016213508 -0.03889128 -0.014817744 -0.02972047 -0.032967415 -0.015303689 0.006988581 -0.0022258942
-0.0053137853 -0.007861265 0.028878763 -0.031531114 -0.00393944 -0.026555736 0.03703955 0.008662553
0.011714911 -0.031650804 0.0031365387 -0.04036905 -0.032808702 0.015220865 0.030802637 -0.016230207
-0.01302031 -0.027280632 -0.014629244 0.012258899 -0.030490603 0.021824827 0.0015685309 0.036631018
0.013238665 0.014004879 -0.017868148 -0.039488398 0.04451588 -0.047050975 -0.010109953 0.022197774
0.0048139635 -0.025293456 0.021386616 -0.038245622 0.030106725 0.03361221 -0.018899579 0.03909736
-0.029841533 0.018249243 -0.018148651 0.009858802 -0.014429501 0.021779876 0.025408251 -0.040421374
-0.02505769 -0.02097586 -0.020283096 -0.021057509 0.009829254 -0.00014338466 0.029680924 0.024308352
-0.029281475 0.010861437 0.004025024 -0.03947197 0.02884273 0.032237787 -0.00837384 0.03614823
0.012003201 0.015713226 0.023475636 0.021202622 -0.037035137 0.027730232 0.032858096 -0.028075911
-0.040778637 0.011633383 -0.03586701 -0.03071515 0.014217666 0.013723391 -0.013305863 -0.030495051
-0.040349927 -0.028162768 0.029289022 0.040087927 -0.020649392 -0.0004313366 0.027957855 -0.0071220407

fc1.bias f4 [240]
00000000: abde 663c 7cc2 243d 5288 1ebd 4c8d afbc
00000010: 7021 8cbc 9258 03bd 7d19 21bb ef8a 18bd
00000020: 5bff ba3b d7cd ba3c 28ad 10bd 143e bd3c
00000030: c848 853c 4f2b 7ebc 9b4e 0dbd 748b 2e3c
00000040: a340 033c 9d27 8ebc c05a 763c dbbf c3bc
00000050: 1d3b 0e3d 8304 35bc dea5 393c 64bc 1abc
00000060: eb1f 033c 85a7 2abd dbf3 f6ba dbe0 7c3c
00000070: 85a7 1dbd 941e adbc 8d4b 08bd 87e2 8f3c
00000080: bedf 09bd 53f5 12bc faaa c7b9 2ea1 a03c
00000090: f218 a4bc 7f50 fe3b a558 93bc 625a 25bd
000000a0: 11b2 eabc 1262 15bc 55b0 0dbd 23d2 633c
000000b0: fbcf c03b e384 28bd 3ec8 863c 1118 26bd
000000c0: c412 0abd 44b0 d4bc 256e 253c 4073 153d
000000d0: bc28 163c f0b3 babc 0047 b6bb 5fe4 ff3a
000000e0: 0d7c f83c 973c 153d 3e27 b3bc 6928 5f3c
000000f0: 4191 ebbc 9f0f 15bd 76ad 58bc 8dbb 6cbc
00000100: b769 62ba d04a 2ebc 237f 1bbd c08a 1cbc
00000110: 2cd8 a43c 82ea 283d d946 c0bc 947f d8bc
00000120: 8c52 023d bea7 b23b 3115 063d c40d f3bc
00000130: d730 ec3c caf8 123b 557e 06bd ae5c f13b
00000140: e03c c7bc 412e 25bd 7799 29bd fe28 ea3a
00000150: 5de9 d53c 7733 7b3b 4b66 3cbc 0402 0c3d
00000160: c5de 17bd 2166 c53c dba8 a23c 2786 043d
00000170: 31cf c3bc 1443 ddbc e36d e9bc 2afc 9c3c
00000180: 22a4 a9bb 0d4d 163d 62e8 31bc 1a3b 1ebd
00000190: 5568 883c ac2e 223d 2eba 843c 4755 e63c
000001a0: 0615 213d 1335 47bb 2e48 2d3c 6a96 003d
000001b0: 9724 63bc b6b6 9abc e4f8 90bc bd53 a1bc
000001c0: cd9a 903b 3347 b93c 266b ad3b 1520 db3c
000001d0: 84ce a0bc 16e4 45bc 441a 2abc 6ef6 18bd
000001e0: 71c1 d33c 633b bfb9 9a62 6d3b 271d 183d
000001f0: cc20 6bbc 0e57 193d ebeb 9bbc 1bed cdbc
00000200: 9d76 763c e710 2bbd 04bc 31bd 9fb7 d1bc
00000210: 522e bbbc da2b a43c 913a 223d 8a4e 07bd
00000220: b689 013d a3d2 f9bc 6b59 0b3d ff06 41bc
00000230: ec69 d63c ae5e a6bc dde4 183c fd3b de3c
00000240: a35b 953c 001d 273b 1a29 ab3c adb5 b5bc
00000250: 5cbd 5cbc 4e57 163d f3d1 6b3c 9674 043d
00000260: fdec fa3c 25c4 20bc ccd0 e73c 577c 1f3b
00000270: 38f4 2a3b f975 d9ba 2cce 07bd 4ffc b1bc
00000280: d1d7 ffbc cb2c 2a3d 8d0e 523c 200b 0ebd
00000290: 0904 b53c 02a5 043d f65f 00bd f25d 2abd
000002a0: ddd3 223d 4a4f ed3c bf06 b4bc e9d4 16bd
000002b0: c38a 2cbb d476 e83c 02ee 10bd d28f d9bb
000002c0: 938c 0dbd 8fc6 d9bc cc23 fb3c fe72 19bc
000002d0: d7de bc3c 62d9 12bd 582b 513c 4d92 a9bc
000002e0: 1048 8dbc 8658 703c da8e 77b8 2106 853c
000002f0: f122 2fbd c260 a0bb cd10 0cbc 3ee5 8c3c
00000300: e9dc 123d 9c0d b5bb 9adf 773c 81c8 613c
00000310: e470 8c3c af8d 143d ec08 acbc 819e 583b
00000320: e1a8 88bc 4c51 f63c 2219 633c c979 253d
00000330: 26db 0dbd 54c1 d4bc e532 35bc 23ee 88bc
00000340: ae56 b13c cb11 a3bb bf62 e4b7 7cac 893b
00000350: a31c 393d 7bc8 ad3c b7b7 55bc 8ed2 b6bc
00000360: 58d4 203d e03f 15bd 4b7d 063d ef5d b83c
00000370: 6eeb dcbc 17b7 f9bb 88ac fcbc b152 adbb
00000380: 0d6b 353d 48c1 c83b 1697 133d a831 19bc
00000390: 2e82 ac3b 812d 10bd b57f 6a3c 26b5 0fbd
000003a0: 622f b93c 2bd0 15bd ad11 d7bc db1c 103d
000003b0: d52e 143c 38b0 ea3c a9a2 453c 4752 2a3d
0.014091174 0.040224537 -0.038704224 -0.02142968 -0.017105788 -0.03206689 -0.0024581843 -0.037241872
0.0057067103 0.02280323 -0.035321385 0.02310089 0.016270056 -0.015513255 -0.034498792 0.010653365
0.008011016 -0.017352873 0.015036285 -0.023895195 0.034724344 -0.011048439 0.01133105 -0.00944433
0.008003215 -0.041663665 -0.0018840985 0.015434469 -0.038489837 -0.021132745 -0.033275176 0.017564071
-0.033660643 -0.008969623 -0.00038083625 0.019608106 -0.020031426 0.0077610607 -0.017986605 -0.0403694
-0.028649362 -0.00911762 -0.03459199 0.013905081 0.005884168 -0.041142356 0.016452905 -0.040550295
-0.033709303 -0.025962956 0.010097061 0.036486864 0.009164985 -0.022790879 -0.005562663 0.0019523016
0.03033259 0.036434736 -0.021869298 0.013620474 -0.028755786 -0.03639185 -0.01322495 -0.0144490125
-0.00086369686 -0.010637954 -0.037963044 -0.009554565 0.02012261 0.04123927 -0.023471283 -0.026428021
0.031817004 0.0054521253 0.032735053 -0.02966965 0.028831882 0.0022426122 -0.032835323 0.0073657846
-0.02432102 -0.040327314 -0.04140612 0.0017865 0.026112253 0.0038330236 -0.011498998 0.03418161
-0.037077684 0.02409655 0.019855907 0.0323545 -0.023902507 -0.027009524 -0.02849478 0.01916321
-0.005177037 0.036694575 -0.010858627 -0.038630582 0.016651312 0.03959529 0.016202059 0.028116835
0.03932669 -0.0030396625 0.010576291 0.031393446 -0.013863704 -0.018885951 -0.017696805 -0.01969325
0.004412985 0.022616958 0.005292314 0.026748696 -0.019629724 -0.012078306 -0.010382239 -0.03734439
0.025849076 -0.00036474605 0.0036222101 0.037137177 -0.014351081 0.037436537 -0.019033393 -0.025137475
0.015042928 -0.041764166 -0.043392196 -0.025600253 -0.022849236 0.020040441 0.039606635 -0.033033885
0.031625472 -0.030495947 0.034020822 -0.011781453 0.026173554 -0.020308819 0.009331909 0.027128214
0.018232172 0.0025499463 0.020893622 -0.022181356 -0.013472881 0.036704354 0.0143933175 0.032337748
0.030630583 -0.0098123895 0.028297804 0.0024335587 0.0026085507 -0.0016590945 -0.033155605 -0.021726755
-0.031230839 0.041546624 0.012820852 -0.03467858 0.02209665 0.032383926 -0.031341515 -0.0415935
0.03975283 0.028968472 -0.021975873 -0.03682414 -0.0026327826 0.028376974 -0.035383232 -0.006639459
-0.03455789 -0.026583938 0.030656718 -0.009365795 0.023055477 -0.035851844 0.012766682 -0.020699644
-0.017246276 0.014669543 -5.902243e-05 0.016238274 -0.042757932 -0.004894347 -0.0085489275 0.017199155
0.035855208 -0.005525304 0.015128994 0.013780714 0.017143674 0.036267933 -0.021000348 0.003305346
-0.01668209 0.030068062 0.013860973 0.040399347 -0.034632824 -0.025971092 -0.0110594975 -0.016715115
0.021647777 -0.0049764863 -2.72257e-05 0.00420147 0.045193326 0.02121376 -0.013044289 -0.022317197
0.039265007 -0.03643787 0.032834332 0.022505729 -0.02696773 -0.007620703 -0.030843988 -0.0052893986
0.044291545 0.0061265565 0.03603276 -0.009350218 0.005264542 -0.035199646 0.014312674 -0.035084866
0.022605602 -0.036575478 -0.026253546 0.03518377 0.009044369 0.02864848 0.012062707 0.041582372

fc2.weight f4 [120, 240]
00000000: 9b81 2e3d 6099 203c 1420 563d 3a52 33bd
00000010: ec3d 39bd dded 893b 5971 1bbd 848d b93c
00000020: 4c68 03bd 68cc 8a3c 3ff8 0f3d 53e8 22bd
00000030: b6a1 a0bc 2620 febc 1673 9f3c 4e8a 993c
00000040: aa6a 4ebb 20c8 38bd 41a5 5abd 00be 67bc
00000050: ce91 49bd f7cd abbc dbf1 0cbd baff 813d
00000060: 324e 0f3d 1b04 6abd 466c 5ebb e321 22bb
00000070: 6f4e 603d f2da eebc 7389 17bd 4064 473d
00000080: 2cea d03c 0cde 643d 784b 4d3c 66a6 13bc
00000090: bec8 29bd e7c6 5abd 5e50 30bd 4938 7d3d
000000a0: 3a53 34bd 6b0f 30bd ed3c a7bc 2f0b 6cbd
000000b0: 1ee6 0f3d 3197 7d3d d1c5 f83c 3cc8 1ebd
000000c0: c830 50bb f2de 943c 4502 6f3d 783a 313d
000000d0: 3f4a 073d 4eda 293d 4c37 7abc 3fb9 80bd
000000e0: 4ca4 9d3c 3341 e7ba cdcf 2a3d 63b9 293d
000000f0: 301f 703d 9a18 ee3b 342e 643d 2da6 17bc
00000100: b111 9b3c 7e00 1abd 452b 083d d629 28bd
00000110: ad46 633d 7874 6abc f2be 183b 9f1b 0c3c
00000120: 4b81 663c ce9a 833d fa43 9f3c 1ad1 263d
00000130: d020 98bc 985f 75bd 882a a03c 44be 5dbd
00000140: f69f 91bc b46f 86bb b0fb 0c3d 7d89 b13c
00000150: 6210 ba3c c4fc 563d 83ae b23c 40d1 983b
00000160: 14ad 543d ee6e 5bbd d11d c93c d5c6 273d
00000170: 2147 d13c e3e8 b63c b3f6 ad3b 92bc 80bd
00000180: 78f4 56bd 4dd7 6e3a baa5 373d 3bd7 2b3d
00000190: f442 0f3d 27d6 cd3c dee3 b93c ac12 c4bc
000001a0: c308 7d3d 7ab4 7a3d 86d8 6f3d 01d4 31bd
000001b0: c0ff 12bc c30d 863c 1a2e a4bc bc0d 1ebd
000001c0: be69 87bc 5c04 123b 94a8 a7bc cb0b 78bd
000001d0: 5b13 7ebd bcd6 dbbc 11d1 19bd 673c 9d3b
000001e0: 0338 153c ddaf 66bd dfe3 493d f8fb 25bc
000001f0: b3d1 023d 626d 15bd 7f64 54bd 69cf 66bd
00000200: af35 4b3d 6e73 883c 7182 2c3c c44c 253d
00000210: 276d 843d 91c3 81bd 222f fb3c c6b4 c53c
00000220: f240 9c3c ab69 b33c f48e 4bbc e3ad d43b
00000230: a92e 22bd 3a48 47bd 5bc0 6dbd 0891 5fbd
00000240: e3a9 82bd 2026 d53b 5a26 6ebd c259 49bd
00000250: 32a3 563d 852c 8b3c 154e c2bc 898c dc3c
00000260: b8f8 38bd 2d4b 20bd 85fe b33b a735 d4bc
00000270: e5d6 5c3d ea1d 38bd 2cb8 743d 6022 073d
00000280: bb76 39bd 28e4 4fbd 6913 93bc d81b bf3c
00000290: a9be 773d 2051 3cbc 8b9f 5fbd 38e5 7d3d
000002a0: a1d8 08bd ed18 6dbd 3136 353d a2b9 e7bc
000002b0: 3ff8 16bd da73 3c3d 94d8 1c3d 78bd 573b
000002c0: 6820 56bd d01c 8ebc 0131 323d ba36 4a3d
000002d0: 6ddf 1ebd 2dd0 003d e085 db3b 688e 223c
000002e0: 4fd2 51bd 5c00 083d 1e0f 96bc 92df 5c3d
000002f0: 5f0d a1bc 61d2 bc3c d481 d6bc 325e 783d
00000300: 6003 053d fe2b 653c c098 cfbc 7504 1cbd
00000310: bc02 063d e677 b63c bc81 febb 57ed 023d
00000320: 3dc1 ae3c 4123 70bd 53a8 3f3d 44d2 39bd
00000330: 57d0 2f3d 36cb 21bd 8ede 1ebd afad 523d
00000340: 0192 6d3c 8693 7ebd 366d f53c 31d6 793d
00000350: ff26 753d a5fb 50bd 002f 103d 971a 67bd
00000360: 92f5 6bbd f908 13bd 2bcb fe3c 2fd4 29bd
00000370: 1f9d aa3b 758d a7bc da82 053d e1ea dc3c
00000380: b92a 78bd e26d 0d3d 4690 ae3c b2be afbc
00000390: be18 303d 1c83 65bd 72a3 15bd 1ec9 adbc
000003a0: d744 563c cc6b 0dbd 42ae 1bbd a281 92bc
000003b0: ad70 473c 9209 00bd 087c 06bc ece8 13bd
000003c0: 628d 3c3d bbce 2a3d ff48 5a3c 5f17 82bd
000003d0: feed 673d d189 80bb 0175 77bc b95d 7c3d
000003e0: 7dd4 3dbd d2b7 ab3c 70d7 2cbd 5621 42bd
000003f0: aaf9 d83b ae22 adbc 6dfc 7ebd d13e ac3c
0.04260407 0.009802192 0.052276686 -0.04377959 -0.04522507 0.0042092637 -0.037949894 0.022650488
-0.032081887 0.016943172 0.035148855 -0.039772343 -0.01960836 -0.031021189 0.019464057 0.018742707
-0.0031496682 -0.04511273 -0.053380255 -0.014144421 -0.049211316 -0.020972235 -0.03441034 0.06347604
0.034986682 -0.05713282 -0.0033939048 -0.0024739436 0.0547623 -0.029157136 -0.036996316 0.04867959
0.025502287 0.055875823 0.0125302 -0.00901184 -0.04145121 -0.053412344 -0.043045394 0.061821256
-0.044024684 -0.042983454 -0.020414794 -0.057627853 0.035131566 0.061911765 0.030367764 -0.038765177
-0.0031767357 0.018172715 0.058351774 0.04326865 0.03302979 0.041467957 -0.015271973 -0.06285333
0.019243382 -0.0017643332 0.04170208 0.041436564 0.058623493 0.0072661163 0.055708125 -0.009255928
0.018929334 -0.037598126 0.03324439 -0.041055523 0.055487324 -0.014309995 0.0023307172 0.008551507
0.014068912 0.06426011 0.019441593 0.04072676 -0.018570334 -0.05990562 0.01955153 -0.05413653
-0.01777647 -0.0041026715 0.034419715 0.021672005 0.02271289 0.05248715 0.02181173 0.0046636164
0.051922873 -0.053572588 0.02455035 0.040961105 0.025546612 0.022327846 0.00530895 -0.06285967
-0.052479237 0.0009111062 0.044835784 0.041953307 0.03497596 0.02512653 0.022691663 -0.023934685
0.061775934 0.061207272 0.058556102 -0.043415073 -0.008972108 0.016363984 -0.020041514 -0.038587317
-0.016529914 0.002228043 -0.020466127 -0.06055812 -0.062030178 -0.026835792 -0.037552897 0.0047984603
0.0091075925 -0.05632006 0.04928958 -0.010130875 0.031938266 -0.03648127 -0.051853653 -0.056350145
0.049611744 0.016656604 0.0105291465 0.040356413 0.06466132 -0.063361295 0.030662123 0.024134051
0.019073937 0.021900972 -0.012424219 0.0064904555 -0.03959528 -0.048652865 -0.058044773 -0.054581672
-0.063800596 0.006504789 -0.058142044 -0.049157865 0.05240173 0.016989002 -0.023718873 0.026922481
-0.04515907 -0.039134193 0.0054929876 -0.02590449 0.053915877 -0.044950403 0.059745952 0.032991767
-0.045279246 -0.050754696 -0.017953591 0.023328707 0.060484562 -0.011493951 -0.05459551 0.06198618
-0.03340972 -0.0578851 0.044241134 -0.028286759 -0.03685784 0.046008922 0.038292482 0.0032919329
-0.052277 -0.017347723 0.043503765 0.049368598 -0.038787294 0.031448532 0.0066993088 0.009921648
-0.051225957 0.033203468 -0.018317755 0.05392415 -0.019659696 0.023049535 -0.026184954 0.060636707
0.03247392 0.013987539 -0.025341392 -0.038090188 0.03271745 0.022273969 -0.0077669304 0.031964626
0.021332378 -0.05862737 0.046791386 -0.04536654 0.042923298 -0.039500438 -0.038786463 0.05143517
0.014500142 -0.062152408 0.029959302 0.060995284 0.059851643 -0.051021237 0.035201073 -0.056421842
-0.05760724 -0.03589723 0.031102737 -0.04146212 0.0052067186 -0.020453194 0.032595493 0.026967468
-0.06058762 0.03452862 0.02130903 -0.021453235 0.042992346 -0.05603324 -0.036532827 -0.021214064
0.013077936 -0.03452663 -0.038007982 -0.01788408 0.01217286 -0.031259127 -0.008208282 -0.036110803
0.04603327 0.04170106 0.013323068 -0.06352114 0.05662345 -0.003922679 -0.0151035795 0.06161282
-0.046345223 0.020961676 -0.042197645 -0.047395073 0.006621559 -0.0211347 -0.06225245 0.021026047

fc2.bias f4 [120]
00000000: 88d4 993b 896f 5b3c b0a5 203d 7215 523d
00000010: 5c0e 12bd d409 53bc 30d3 7cbd 00e9 893a
00000020: fac3 1bbd a2ae 18bd 8201 433c da1c 263b
00000030: 770f 273c e730 92bb e388 a7bb 4266 62bd
00000040: ead5 00bd aef6 d33b 0375 4b3d b0c5 c73b
00000050: ed40 b73c 86c7 023b 14f0 80bc 86c0 393a
00000060: 053c 673c 7cae e03c 24a0 e9bc 90e8 133b
00000070: 46ee f1bc 242c 243d 349d f5bc e71f 0f3d
00000080: b4a9 6abd b6fa 02bd 6ac7 dcbc 545e 09bb
00000090: 4eef 34ba 5cae 263d 6e76 453d 554e 793d
000000a0: 2473 b63c 867c 863c e9fd 513d f2e7 f3bc
000000b0: 963f d7bc 7018 fa3c 19db a03c 6d7f 033b
000000c0: fa25 0a3c 1704 54bb 182c bebc cc23 9ebc
000000d0: b7a0 443d e65b b43c 5335 76bd 2901 9b3c
000000e0: 2ea9 5ebd d238 28bd 3608 22bd bd0f 07bd
000000f0: 535f 023d 6092 48bd 7b5c 2f3d bea1 363d
00000100: df63 953b d859 efbc 17cb 263c ec63 37bd
00000110: 3114 603d 014f e83c edb3 83bd 76f4 0e3d
00000120: 389a ffbc 9c6a 1ebc 539b d4bb a4cf b43c
00000130: 0cd6 603d c2ee 163d cfc6 d0bc 351d 89bc
00000140: 7ecd 09bd 2cd9 16bd 0211 4d3d 8699 043d
00000150: 9962 713d 1e2b 7a3d db99 71bd b14e bebc
00000160: d544 003b 6053 b2bc d75a 403d 9d75 463d
00000170: 00ee 1abd 5aa8 933b c3b5 2e3d bd09 27bd
00000180: 02b6 c23b 457f 22bc 78bc fa3c 2934 bfbc
00000190: ef65 7a3d d3c1 703b 9269 ea3c 0c81 643d
000001a0: 4b25 f9bc 4a6c 6fbd 05a2 df3c 0520 453d
000001b0: 1aba 0e3d fc01 18bd 10b7 9a3d 9f90 7b3c
000001c0: 511f c0bc b31a 21bc 401f 58bd eb16 6f3d
000001d0: 0955 83bd 88ab 293d 02df 5f3d 9d65 78bc
0.004694525 0.013393291 0.039220512 0.051289983 -0.035658225 -0.012880761 -0.06172484 0.001052171
-0.038028695 -0.037275918 0.011902215 0.0025346787 0.010196558 -0.004461396 -0.0051127537 -0.055273302
-0.031454004 0.0064686155 0.049672138 0.0060965642 0.022369826 0.001995535 -0.015739478 0.0007085878
0.014113431 0.02742695 -0.028518744 0.0022569038 -0.029532563 0.04008116 -0.029982187 0.034942534
-0.057290748 -0.031977378 -0.026950557 -0.0020960765 -0.0006902114 0.040693626 0.048208646 0.06086572
0.0222717 0.0164168 0.05126754 -0.029773686 -0.026275437 0.03052923 0.019635724 0.0020064965
0.008431906 -0.003235107 -0.023214385 -0.019304179 0.048004832 0.022016477 -0.060109448 0.018921452
-0.05436056 -0.041069813 -0.03955861 -0.032973994 0.03182919 -0.04896772 0.042812806 0.044587843
0.0045590247 -0.029217646 0.010180256 -0.044773027 0.054706756 0.028357984 -0.064308025 0.034901105
-0.031201467 -0.009668972 -0.0064882427 0.022071667 0.05489163 0.03684879 -0.025485424 -0.01673756
-0.03364324 -0.036828205 0.050065048 0.032372974 0.05893192 0.061076276 -0.05898462 -0.023230882
0.0019572277 -0.021768272 0.04696163 0.04845201 -0.03782463 0.004506153 0.04265381 -0.04078077
0.005942107 -0.009918039 0.030607447 -0.023340302 0.061132368 0.0036736622 0.028614793 0.05578713
-0.03041329 -0.058452882 0.027298937 0.04812624 0.03484545 -0.037111267 0.07554448 0.015354305
-0.023452433 -0.009833026 -0.052764177 0.058371466 -0.064127035 0.04142335 0.054656036 -0.015160945

fc3.weight f4 [6, 120]
00000000: abda 393d f56f 453e fc9b 11be f2e2 9f3c
00000010: 0aa9 83bd 1c63 493d 9c62 9ebd 9c39 a13c
00000020: 7595 fbb8 0406 a13d 1853 a6bd d15c 73bd
00000030: d515 b13e e33f 8abd ac1a 883b dd3d a8bd
00000040: 685b b83e 46d5 8cbd e2b7 64be 905d 0f3d
00000050: 8ebd 09bb b14a 1dbe 1654 933e 6ec0 03be
00000060: a350 8ebd 19cf 14bd b3f9 85bd 0107 0b3a
00000070: aa5b a73e cce5 a73c b87e 903d b6b1 f43d
00000080: 633c 3dbd 47dc 1bbd bd20 1bbd fee8 c5bd
00000090: 7705 0d3d 727e 8e3d 772f 99bd 7060 1c3e
000000a0: 47f2 5dbd 3ddf 613e cc29 9fbd 1008 33bc
000000b0: 7a88 1d3d 7726 75be eefe 17bd 7070 4d3e
000000c0: 45db de3d 165e b63e 9563 4cbd 653a 6d3e
000000d0: 1a43 bc3d c3c3 16bd 306c ca3b a9a7 9bba
000000e0: eade 20bd df14 0dbe 2e9b 70bc 89c1 f13d
000000f0: 7645 43bd 0592 afbd af8a 353d e639 cfbd
00000100: 3588 2b3e 5eaa b3bc 669b 883d 7398 53bd
00000110: 4a9d 493e a993 cabc a964 333d 2b72 733e
00000120: db97 233d ab90 c8bc 7583 fa3d 82e1 6b3c
00000130: 7fb6 4ebd 96f0 0c3d e3b1 ea3c 26cc 5f3d
00000140: 9956 873d 81b5 12be 5e1f a13d f550 853e
00000150: 297a 3bba 4d93 a73d b4a7 533d 6158 99bd
00000160: 2f21 5e3e 2203 3c3d d38e acbc 7ca8 6e3e
00000170: eaba 3dbd 9fe7 80bd 9939 503e 65b8 0a3d
00000180: 2817 cb3d 6296 d8bc d7fe eebd 18fc 893d
00000190: 59cb 06bd ca14 fd3c 58f3 733d c880 fe3c
000001a0: aa6d d1bc 1a65 a8be ecf0 d2b9 f4c9 b2bc
000001b0: 489e 9abd 3007 3a3d 19cd c03e f597 2dbe
000001c0: 8f00 7b3d 44e7 48bd 5624 96bd 7d0d 21bd
000001d0: 7884 563c 4f42 a6bc aca4 c5bc c262 563e
000001e0: 06cb 0a3c eb0f 19be 2b5e 833e ef37 af3c
000001f0: c0d4 5b3d 37eb 11bd b84a b5bd 60ca 00bb
00000200: 15c3 06bd 4349 a03d 5e3b 823d bafa b83c
00000210: f34a 3ebe c5a4 81bd f4ac a53c 1f01 89bd
00000220: c468 ecbd 308e 4d3e eaf5 a33e 4ead 6ebd
00000230: 675d ba3d 23ef 233e 5c56 c43d f2b9 f93c
00000240: b981 2bbc 806d 3abd 0004 1d3d 437b 483e
00000250: 20e1 23be faf9 91bd 0f6f 80bd 9801 86bd
00000260: 1e90 9a3c 4242 3dbd 6cca 5c3d e2a3 0e3e
00000270: ea4d 8b3c 92b2 9cbd 5a81 8a3d d247 bb3b
00000280: f1bc 97bd 2660 28be 2e44 b03c 0096 243c
00000290: d884 fb3d 77ed a43e 1b6c 93bb b974 49be
000002a0: ebbc c1bd 61da 68be e091 003d c34e 163e
000002b0: 9e06 d13d ddd0 bb3d 6455 5d3d a798 9abc
000002c0: 0d0c 34bb 0d6e 333e d0fa d5bb 9d23 04be
000002d0: 01bc b23c e6e2 9abd a934 813e db8b 6f3d
000002e0: eda0 62bd 2b4a 1f3d c138 25bd 400d 08bb
000002f0: 57c4 933d 95ec 293e bc82 303d 5ea4 30be
00000300: b202 90bd 52c4 4f3d b25b 34be 938c 2f3e
00000310: 7561 4b3c c46c a13d 6421 9dbd 67a9 86bd
00000320: fa91 4ebc 7343 9b3d a84c adbc 6f7c 153e
00000330: 9e5a b8bd a512 a0bd 0099 a839 1d4a 763e
00000340: e4b3 c2bc f947 33bd bc55 1dbd 6630 f53d
00000350: 9f61 88bd 598f a7bc 83c3 2e3e 8ba6 a93d
00000360: bbb3 f5bd c5a9 bd3c 6bf2 3a3e 51b7 6b3d
00000370: f40b 933e 97f9 1ebd f41f 0b3d 28fa 483d
00000380: bd11 9dbd dbef c73e a5ee e3bd f29c abbd
00000390: 313c 3cbc ca99 99bd b89c 02be e1bb 033e
000003a0: 8651 68bd f60b be3c fa1b 8cbc 724e c63d
000003b0: fb5a 9f3d 8784 a03d 739e 6abd 01a8 aebc
000003c0: 258b 76bc 2731 a03d 25a9 9c3d 345c 2b3d
000003d0: bcc6 513d 48b5 1abc 78fe fe3c 1cbc fa3c
000003e0: 9c63 793d e7f8 503d 726b 00bd d9f1 c3bd
000003f0: f002 423d 09fc 75bd e3cc 03bd 98c7 a7bd
0.045374554 0.1928099 -0.1421966 0.019517396 -0.06428726 0.049166784 -0.07733652 0.01968079
-0.00011996451 0.078624755 -0.081213176 -0.05941469 0.3458697 -0.06750467 0.00415357 -0.082149245
0.36007237 -0.06876616 -0.2233577 0.035001338 -0.0021017524 -0.15360524 0.2877509 -0.12866375
-0.06948974 -0.036330316 -0.06541767 0.0005303473 0.32687122 0.020495318 0.0705542 0.11947958
-0.046200167 -0.03805187 -0.03787302 -0.0966358 0.03442904 0.06957711 -0.07479756 0.15271163
-0.05418613 0.22057815 -0.07771644 -0.010927215 0.038460232 -0.23940454 -0.037108354 0.20062423
0.10881666 0.35618657 -0.049899656 0.23166807 0.09192486 -0.036807787 0.0061774477 -0.0011875528
-0.039275087 -0.13777493 -0.014685435 0.11804492 -0.047673665 -0.08572773 0.044321712 -0.10118465
0.16751178 -0.021931823 0.06670265 -0.05165906 0.19688907 -0.024728613 0.04379717 0.2377402
0.039939743 -0.024483046 0.12232105 0.014397027 -0.05046701 0.034409128 0.028649276 0.05463805
0.06608314 -0.14327051 0.07867311 0.26038328 -0.0007151687 0.08182392 0.051673606 -0.0748756
0.21692346 0.045901425 -0.021064198 0.23306459 -0.046320833 -0.06294178 0.20334472 0.03386726
0.09916526 -0.026438896 -0.116697006 0.06737536 -0.03290877 0.030893702 0.059558243 0.031067267
-0.025564987 -0.32889634 -0.00040233822 -0.021824814 -0.07549721 0.04541701 0.37656477 -0.16952498
0.06127983 -0.049048677 -0.07331149 -0.039319504 0.013093106 -0.02029529 -0.024126373 0.2093611
0.008471256 -0.14947478 0.25657782 0.021388976 0.05366969 -0.03562471 -0.08852142 -0.0019651875
-0.03290089 0.078264736 0.0635898 0.022580493 -0.18583278 -0.063302554 0.020224072 -0.06689667
-0.1154342 0.20073771 0.32023555 -0.058270745 0.09099846 0.16009192 0.09586784 0.030484173
-0.01046794 -0.045514584 0.038333893 0.1957827 -0.16003847 -0.07127757 -0.06271183 -0.06543273
0.018867549 -0.046205766 0.053903982 0.13929704 0.017004926 -0.07651247 0.06762953 0.0057153488
-0.074090846 -0.16442928 0.021516886 0.010045528 0.12281197 0.3221242 -0.004498971 -0.19673432
-0.09459861 -0.22739555 0.031389117 0.14678483 0.1020634 0.09170697 0.054036513 -0.018871618
-0.0027473003 0.1752245 -0.0065301433 -0.1290421 0.021818163 -0.07562809 0.2523549 0.058482986
-0.055329252 0.03888909 -0.040337328 -0.002075985 0.07215183 0.16594155 0.043093428 -0.17250201
-0.07031764 0.050724335 -0.17613104 0.17143469 0.012413372 0.078820735 -0.076723844 -0.0657528
-0.012608046 0.07581224 -0.021154717 0.14598249 -0.09001659 -0.07816056 0.0003215745 0.2405171
-0.02376742 -0.04376981 -0.03841184 0.11972122 -0.06659245 -0.020454096 0.1706677 0.08283719
-0.119971715 0.023152241 0.18256538 0.05754787 0.28720057 -0.038812246 0.03396602 0.049066693
-0.07669399 0.39050183 -0.11129502 -0.08379544 -0.01148896 -0.07500036 -0.12755096 0.12864639
-0.05671837 0.023199063 -0.017103184 0.09682931 0.07781025 0.078377776 -0.057280015 -0.021320345
-0.015047823 0.07821875 0.07649449 0.04183598 0.05121492 -0.009442635 0.0311272 0.030607276
0.06088601 0.05101862 -0.031352468 -0.09567613 0.047366083 -0.060054813 -0.032177817 -0.08192366

fc3.bias f4 [6]
00000000: 2a92 2b3e c4f0 703d dacb ddbc b99e d4bd
00000010: 5c34 a2bd 23f9 97bd
0.16754976 0.058823362 -0.027074743 -0.103818364 -0.07920143 -0.07420566
