model(6).pth (torch_old, 659123 bytes, 6 tensors)

fc1.weight f4 [240, 561]
000000 93 81 e6 3c 12 0f f0 3b 47 61 12 3d 13 49 50 bd
       0.028137958 0.0073260153 0.035737302 -0.05085094
000010 ad 4e 7d 3b 76 b7 9d 3c 21 e1 66 bd e3 e7 84 3c
       0.003865163 0.01925252 -0.056367043 0.016223853
000020 73 fa 90 bc 3c 7c 2e bd 87 b7 70 3c ec e0 13 3d
       -0.017697548 -0.042598948 0.014692194 0.036103174
000030 34 b0 1e bc 82 48 82 bc 71 da 43 3c 3f 0a 4c bd
       -0.009685565 -0.015903715 0.011953936 -0.04981446
000040 50 81 65 bc 0f 73 c7 bc ca fe 21 3c 83 79 38 bd
       -0.014007881 -0.024346856 0.009887407 -0.045037758
000050 70 38 23 bd 21 88 4a 3c 07 e4 03 bd 78 b0 c1 3c
       -0.039848745 0.012361557 -0.032199886 0.023643717
000060 f3 23 c9 bc 70 39 da bb a1 d0 ab bc 75 a4 94 bc
       -0.024553275 -0.006659679 -0.020973505 -0.018144825
000070 30 80 3c 3d b9 40 d9 bc e3 35 3d 3c 53 e4 81 bc
       0.046020687 -0.02652012 0.011548492 -0.015855944
000080 8a 72 5c 3c 68 f3 17 3c a2 36 95 bc 14 5f 8d 3c
       0.013455043 0.009274341 -0.018214528 0.01725725
000090 09 ea c4 3c a4 7e 7f bb ee 5e ac 3c 05 cc 65 bc
       0.024037378 -0.0038985396 0.02104136 -0.014025693
0000a0 9d 4f 06 bb 09 f1 c1 3c b5 76 2f bb 04 1c 3a 3a
       -0.002049423 0.023674505 -0.0026773636 0.00070995116
0000b0 39 00 f7 3c 8d e6 b1 3c ff 20 8a bc 22 d6 9b 3c
       0.030151473 0.02171638 -0.016861437 0.019023005
0000c0 a2 e6 95 3c 74 0a 59 bc 48 ab 50 3d 1e 28 ab bb
       0.01829845 -0.013247121 0.050944597 -0.005223288
0000d0 9a bd a6 bc 4c 8e ac 3d f0 5d 46 3d 90 97 48 bd
       -0.020354081 0.084255785 0.04842943 -0.048972666
0000e0 fe 2a 71 bd ce 2d e0 3c f5 8b 62 bb bf 57 e2 3c
       -0.05887889 0.027365591 -0.0034568284 0.027629731
0000f0 06 06 f5 bc 20 49 c7 3b d1 5e 4a bd 72 6c 82 3c
       -0.029910099 0.006081715 -0.04940683 0.015920851
000100 99 03 94 bc 63 9e e4 3a 60 9e 97 bc c4 b0 00 bd
       -0.018068122 0.0017442222 -0.018508136 -0.031418577
000110 82 a9 06 bd 6d bf 8e 3c 21 0e 00 bc b0 1c cd bc
       -0.0328765 0.017425263 -0.007815869 -0.025038093
000120 2d c3 10 bd 8c 54 3c bc 41 6e a4 bc 17 9a 8b bb
       -0.035342384 -0.011494767 -0.020072104 -0.0042603123
000130 2d ab 9b bc 0b d0 a8 bb 9b 69 5f bc 41 6f fe 3b
       -0.019002521 -0.005151754 -0.013636018 0.0077647273
000140 26 90 bd 3c 13 6f c5 3a 16 e5 08 bd 7b 98 22 bd
       0.023140024 0.001506301 -0.0334216 -0.039696198
000150 d7 bd 27 bd ce c9 28 bd 5d 9a 30 bb d8 1b 34 bd
       -0.04095253 -0.04120808 -0.0026947476 -0.043971866
000160 1c e6 2b bd 68 bb b7 3c 5f c2 0a bd 36 1d ff 3c
       -0.041967496 0.02242823 -0.033876773 0.031141859
000170 ce 34 ca bc b3 a8 cf bc 65 99 ea 3c ed d0 04 bd
       -0.024683382 -0.025348997 0.028637597 -0.03242581
000180 e4 b2 aa bb e6 61 e2 3c 18 69 7e 3b fe cc 93 bc
       -0.0052093137 0.027634572 0.0038819965 -0.018042084
000190 69 b7 a6 bc 36 74 2a bd 9e 10 f2 bb 5b 52 53 bd
       -0.020351129 -0.041614734 -0.007387235 -0.051592212
0001a0 96 02 5a bc 5f c7 82 bc 63 27 11 bd 59 75 9c 3c
       -0.013306281 -0.015964208 -0.035437953 0.019098924
0001b0 fc d2 af 3c 65 11 a6 bc aa 5e 33 3c ff ce 70 bc
       0.02146291 -0.020271966 0.010947863 -0.014697789
0001c0 7c 4a 2d bd ad e2 2f bd f1 d4 93 3c 49 8b 0c bd
       -0.042307362 -0.042940784 0.018045874 -0.03431252
0001d0 3f 25 8b 3c 05 7a 87 3c 77 85 55 3d 9f 0b da bc
       0.016985534 0.016537676 0.052129235 -0.02661687
0001e0 96 fa f7 3c d1 11 b8 bc 63 c4 c6 3c 77 d2 0c bd
       0.030270856 -0.022469433 0.024263566 -0.034380402
0001f0 7e 07 21 bc ed 13 f3 bc fa cb a3 3c 54 23 e8 bc
       -0.009828446 -0.029672587 0.019994725 -0.028337158
000200 33 22 64 3b 55 44 3e 3c 8b 7b 90 3c 5f 2d eb bc
       0.0034810423 0.011612971 0.017637035 -0.028708158
000210 f3 ec 00 bd ac 5d 1e bc cc 82 19 3c 30 2d 21 bd
       -0.031475972 -0.009665888 0.009369563 -0.039349735
000220 68 cc b4 3c 68 31 df 3c 6d 07 15 bd c0 0e 40 3c
       0.022070125 0.027245238 -0.036384035 0.011722267
000230 21 6a 23 bd 24 76 a9 bc ba 55 2d bd 92 8a a1 3c
       -0.039896134 -0.020686217 -0.042318083 0.019719396
000240 98 75 bd 3b b3 6a 7c 3b 7f d6 ec bc 20 92 a5 bc
       0.0057818405 0.0038515746 -0.028910873 -0.02021128
000250 5d 67 cd bc ed 03 2e bd cf 81 f9 3c 05 05 f2 3c
       -0.025073702 -0.042484213 0.030457405 0.02954341
000260 ff ac bc bc 7e 12 0e 39 df 6c 2d 3c 43 ad a7 3c
       -0.02303171 0.00013549064 0.010585039 0.02046836
000270 78 fd ba 3b b9 c9 f5 bc 58 45 cc 3c 7a 12 d6 bc
       0.0057064854 -0.030003415 0.02493541 -0.026131857
000280 ee 19 03 ba 5d 0d 0c bd 22 41 8c 3b c8 02 2a bd
       -0.0005001117 -0.03419243 0.0042802254 -0.04150656
000290 cb ab 18 3d ad 0f 1d bc 53 13 fa bc d3 1b 50 3c
       0.03727321 -0.009586257 -0.030526793 0.012701946
0002a0 8f c3 96 3c 4d e5 f0 3c 19 c0 1f bd a3 e7 8e ba
       0.018403796 0.029406214 -0.039001558 -0.0010902773
0002b0 9a 6f 91 3b f7 5d 05 3d df f8 bf bc aa b1 ad bc
       0.004438353 0.032560315 -0.0234341 -0.02120288
0002c0 a3 3a 0f 3d 4c 8e ca bb 33 89 60 bc 60 76 c2 bc
       0.03496803 -0.006181514 -0.013704586 -0.023738086
0002d0 8b c1 cc bc 2c 28 c8 bc 15 40 42 bc 72 0b fd 3c
       -0.024994632 -0.024433218 -0.011856099 0.030889247
0002e0 e6 be ad ba 1e 4a 8f 3d 88 eb 19 3d c0 5c 19 3d
       -0.0013255745 0.069965586 0.037578136 0.03744197
0002f0 7e 24 0c bd 9a d6 62 3b 36 d9 ec 3c 40 f0 f4 bc
       -0.03421449 0.0034612776 0.028912168 -0.029899716
000300 4a b6 8a bb e0 6e bc bc d3 e0 17 3d 7c c9 9e bc
       -0.0042331563 -0.023002088 0.037079643 -0.019383185
000310 e2 fa e0 bc 05 9b 87 3d d9 35 41 3d fc f0 2f 3d
       -0.02746338 0.066213645 0.047170494 0.04295443
000320 d0 9d 0b bd 2b 5f 1d bc 41 63 d4 3c 74 a0 92 bc
       -0.03408605 -0.009605209 0.025926234 -0.017898776
000330 37 47 f8 3c ff e5 8d bc ae c2 eb bc aa 6a 02 bd
       0.030307395 -0.017321585 -0.028779354 -0.031840004
000340 77 85 d7 bc a4 1a ef 3c 8e b9 a6 3c f7 c2 e8 3c
       -0.026308758 0.029187508 0.020352151 0.028413279
000350 05 d7 bb 3c ff 17 9e bc f0 d3 d4 3c 7f de aa 3c
       0.022929678 -0.019298552 0.025979966 0.020858048
000360 00 46 94 3c f9 37 15 bb af 29 9b bc b8 b9 00 bd
       0.018099785 -0.0022768958 -0.018940775 -0.031427115
000370 ab c6 7e 3c 33 71 90 bc c2 56 1f 3d 5f de ce bb
       0.015550296 -0.017632103 0.038901098 -0.00631313
000380 63 1b c1 bc 31 1d ee 3c ad 80 08 3d d2 39 77 3b
       -0.02357263 0.029066654 0.03332584 0.0037723673
000390 74 f4 08 bd 98 d4 12 3b 72 e4 27 bc 20 0b ea bc
       -0.033436254 0.0022404548 -0.010247337 -0.028569758
0003a0 3b 0f 6e 3c c3 28 11 3d 2f f8 11 bd 01 6c 0d bd
       0.014529998 0.035439264 -0.035637077 -0.03452683
0003b0 43 41 a0 bc 7e 81 ea bc c8 2e b4 bc dc 3e 4a 3c
       -0.01956237 -0.0286262 -0.021994963 0.012344088
0003c0 16 09 db 3c c0 0e 0b bd c1 3a 35 bc cd e9 0c 3d
       0.026737731 -0.033949614 -0.011061371 0.034402657
0003d0 f2 20 b0 3c 6f 85 9a bc f7 1f 2c bc c1 d8 7a bb
       0.021500085 -0.018862454 -0.010505668 -0.0038276168
0003e0 64 9c 2f 3d 9a 59 22 3d c3 3b 3b bc ae 6b 89 bb
       0.042873755 0.039636232 -0.0114278225 -0.0041937446
0003f0 38 41 36 bd 2a 2b 7a bc ee 64 ec 3b cc b6 aa 3c
       -0.04449579 -0.01526908 0.00721418 0.020839117

fc1.bias f4 [240]
000000 7a 71 4a 3c e3 16 e7 bc 1e 4f 0c bc 43 30 35 3c
       0.0123561565 -0.028209155 -0.008563785 0.01105887
000010 9a 21 2e 3c 81 24 d6 bc 35 e5 47 3d 75 c3 65 bc
       0.010628128 -0.026140453 0.048802573 -0.014023651
000020 25 66 38 3d 63 da 23 3c a3 e9 16 bd d6 73 55 3b
       0.045019288 0.010000798 -0.036843907 0.0032570264
000030 36 43 0f 3d 4d c7 56 3c e8 ef c9 3c 47 33 a0 bc
       0.034976207 0.01310904 0.024650529 -0.019555701
000040 99 97 41 3d b0 12 08 bc d6 d5 ac 3b 43 f7 ca 3c
       0.047263715 -0.008305237 0.0052745147 0.024776107
000050 cd 77 9b bc 87 e1 16 3d b2 2c 19 3d 77 20 12 bd
       -0.018978024 0.036836173 0.03739614 -0.035675492
000060 44 08 74 3b bd 8a 37 3d 21 5d 87 bb ee 35 e6 bc
       0.0037236372 0.044810046 -0.004130975 -0.028101888
000070 48 15 89 3c 22 05 c9 3b 7c bb 8d bb c7 12 fc 3c
       0.01673378 0.006134645 -0.0043253284 0.030770672
000080 0a 08 94 3c 0e 9f c5 bc a9 e5 45 3c 96 5f 14 3c
       0.01807024 -0.024123695 0.012078681 0.009055993
000090 e0 b1 31 3c 22 ff de bc 00 65 f9 3b af fb 21 3d
       0.010845631 -0.027221266 0.007610917 0.039546665
0000a0 60 07 bc 3c ba 06 10 bc 5c 95 e6 bc 1d 5f 4e 3c
       0.022952735 -0.008790666 -0.028147392 0.012595919
0000b0 9e 18 9d ba dc 8f 0e 3d 60 a1 08 bb 0e 84 2e 3d
       -0.0011985486 0.034805164 -0.002084814 0.042606406
0000c0 ed c2 dc 3c b9 3a 01 3b b9 97 13 3d 41 55 9b bc
       0.026948417 0.001971884 0.036033366 -0.01896155
0000d0 b1 1e 06 bc c9 63 0f 3d 83 ed 5d bc e3 09 2c 3d
       -0.008186028 0.035007272 -0.013545397 0.042001616
0000e0 12 f0 60 3b 9e 09 83 bc 3a 24 0d 3b c7 9e 80 3c
       0.003432278 -0.015995797 0.0021536485 0.015700711
0000f0 de d2 81 bc cc ce 2c bc e2 83 25 bd 8a f4 28 bd
       -0.01584762 -0.010547351 -0.040408976 -0.041248836
000100 f5 23 eb 3c d3 45 82 3c eb e1 5a bc 4b 67 1f 3d
       0.02870367 0.015902435 -0.013359527 0.038916867
000110 8a 51 57 bc 26 f4 22 3d d2 81 ae bb 3d e4 47 bc
       -0.013141999 0.03978362 -0.0053255344 -0.012200412
000120 ae 4f 09 bd 6b 30 20 3d d1 83 16 bd fc 83 af 3b
       -0.033523254 0.039108675 -0.036746804 0.00535631
000130 e8 b6 73 3b 49 6a d3 bc bd 78 52 3a 79 1a 65 bc
       0.0037187878 -0.025807517 0.00080288557 -0.013983362
000140 21 f3 33 3d 11 32 ce 3c 52 1a 2a bc 12 06 d4 bc
       0.043933038 0.025170358 -0.010382252 -0.0258818
000150 34 1a 24 bc ee 12 b4 bc 09 e8 01 3d 80 11 1b bb
       -0.010016013 -0.021981683 0.031715427 -0.0023661554
000160 b0 28 e6 bc 6b e6 be 3c cf 29 e7 bb e6 7a 05 3d
       -0.028095573 0.023303231 -0.0070545445 0.03258791
000170 8e 58 f5 bb 60 29 01 bd 6e 9f fd ba 06 40 b9 3b
       -0.007487363 -0.0315336 -0.0019349882 0.005653384
000180 1f 9c 0e 3d 2b dd ae bc ea 90 f6 3c b6 58 f0 3b
       0.034816857 -0.021345695 0.030098397 0.007334794
000190 5e 61 1f 3b 23 83 cb 3c fa e9 ce bc ef ab 74 bc
       0.002431951 0.024842804 -0.025258053 -0.01493357
0001a0 f7 56 fb bc 28 db 30 3c 24 28 d2 3c c7 6b cf bc
       -0.030681117 0.010794438 0.025653906 -0.025319947
0001b0 a0 60 82 bc fa 47 0d bd 61 c2 dc bc e3 53 9b 3c
       -0.015915215 -0.03449247 -0.026948156 0.018960899
0001c0 7a 63 bb bc ab 1f 08 bd 23 57 8a 3c e8 66 1f 3d
       -0.022874583 -0.033233326 0.016887253 0.0389165
0001d0 7b be f0 3c e9 f0 cd bc 5d 50 e8 3c 90 98 86 39
       0.029387703 -0.025139289 0.028358633 0.0002567214
0001e0 de ac b9 bc b8 d0 78 bb 36 ee 1b bd 4e 21 03 3d
       -0.022665437 -0.0037966203 -0.038068973 0.032014184
0001f0 a6 b4 0b bb 6e 11 cf 3c 89 0e bd bb c0 33 18 bd
       -0.0021317392 0.025276866 -0.005769555 -0.037158728
000200 da 4e 3a 3b b4 38 25 3d 25 44 12 3c 4f f3 e5 bc
       0.0028428347 0.04033728 0.00892738 -0.02807012
000210 8d 1a da bb 0a d6 04 bd 01 1d 2e 3d db 2a a5 bc
       -0.006655997 -0.032430686 0.04250813 -0.020162037
000220 89 86 0d 3d 61 ca 25 3d f5 50 c1 3c cb 1b b7 3c
       0.03455213 0.040476207 0.023598174 0.02235212
000230 00 a5 6e bc ec 60 1c bc 78 39 a2 3c 80 dc 34 3d
       -0.014565706 -0.009544592 0.019802794 0.044155598
000240 ae ee 41 3d f8 73 94 3c 65 74 cb b9 93 f6 fa bc
       0.047346763 0.018121704 -0.00038805898 -0.030635154
000250 20 a7 c6 3c 33 74 18 bd c1 9f de 3c f5 75 83 ba
       0.024249613 -0.03722019 0.027175786 -0.0010029661
000260 37 db fa bc 20 88 33 3d 2f a5 1c 3d 7b 28 4b bc
       -0.030622108 0.04383099 0.03824347 -0.012399788
000270 3b 6d 47 3c 76 16 2e 3c b8 04 0a 3a 5c 0c 61 3c
       0.012172039 0.010625472 0.00052649854 0.013735857
000280 a2 f2 15 bd 1d ad a9 3c 52 8d db bc 9a 44 1e 3b
       -0.036608346 0.02071243 -0.026800785 0.0024149776
000290 43 49 2a bb 29 fb eb 3b ab 00 84 bc 2d 78 94 3c
       -0.0025983609 0.0072015715 -0.0161136 0.01812371
0002a0 e5 96 ee bc 6b e9 99 3c 91 1a 07 3c ba 90 1d 3d
       -0.029124686 0.01878806 0.00824608 0.0384681
0002b0 5a 28 1d 3c 3b 38 c6 3c 65 59 b2 bc 92 2d aa 3b
       0.00959214 0.024196735 -0.021771142 0.0051934207
0002c0 a1 27 27 3d e8 69 2d bd 06 56 0b 3c 09 5f 60 39
       0.040809277 -0.04233733 0.008504396 0.00021397708
0002d0 56 73 18 bd ab 5a d2 bc da 36 3e bc 0a 5a 11 bd
       -0.037219368 -0.025678 -0.011609757 -0.03548626
0002e0 e5 ef 16 3d 1a 91 f9 bc 26 56 f4 bc 5c 35 cb bc
       0.036849875 -0.030464698 -0.029826235 -0.024805717
0002f0 fd 3d 88 3c f4 91 a1 bc d9 f0 6f 3b 13 46 aa bb
       0.01663112 -0.019722916 0.0036612062 -0.005196342
000300 62 73 f9 3a 6e b7 3f 3d cc f7 12 bd 96 c4 bc 3c
       0.0019031579 0.04680579 -0.03588085 0.023042958
000310 32 f3 a4 bb 75 00 be bb ef 3c 25 3d 39 50 19 3d
       -0.005033874 -0.0057983943 0.040341314 0.037430022
000320 68 9c 02 bd ee 26 14 3d 82 0c 7f bc 46 fa 26 3d
       -0.031887442 0.03616994 -0.015566947 0.040766023
000330 92 54 41 3c d2 68 e8 bc f0 da 5f bb 03 70 8c bc
       0.011799948 -0.028370295 -0.0034157597 -0.017143255
000340 24 8d 4d 3c d0 2c c9 3c 13 45 48 3c 50 22 85 ba
       0.012545858 0.024557501 0.0122235 -0.0010157321
000350 2e 95 06 3d c4 5e b4 3c d9 97 d7 3b db 9e c2 bb
       0.032857113 0.022017844 0.006579381 -0.005939347
000360 ff 83 11 bd 66 86 e3 bc ae 9d bc ba ee e0 30 3d
       -0.035526272 -0.027774047 -0.0014390254 0.04318326
000370 d9 12 10 3c 98 6e cc bc 24 0e 1e bb 30 f5 95 3c
       0.008793556 -0.024955079 -0.0024117315 0.018305391
000380 3e 1d bb bc 7f 89 00 3d 9a e1 be bc 13 46 cd 3c
       -0.022841092 0.031381126 -0.023300935 0.025057828
000390 07 f5 36 3d 3c 8c fa 3c 67 e2 8a bc cc fd 55 bc
       0.04466727 0.030584447 -0.01695366 -0.013060998
0003a0 f6 69 76 bc 38 e4 22 3c 61 a6 ea bc 75 70 1b bd
       -0.0150399115 0.009942107 -0.028643789 -0.037949044
0003b0 5e bc 95 bc e9 b9 8f bc 11 92 d6 bc a3 5b 9e bc
       -0.018278297 -0.017544704 -0.026192697 -0.019330805

fc2.weight f4 [120, 240]
000000 77 1f 93 3d 8b bc 62 3d e5 57 bf 3b d2 83 4f 3c
       0.07183736 0.05535559 0.0058393353 0.012665706
000010 0a 76 53 3d aa 97 0f bc 6d 02 ad 3d 12 ab 70 bd
       0.051626243 -0.008764187 0.08447728 -0.058756895
000020 2e 25 cb bc c4 43 33 bd a0 5e b3 3d 27 ec 07 3d
       -0.024798002 -0.0437658 0.08758283 0.033184197
000030 1a 43 92 3d e6 a0 a2 3c df 10 b1 bc 11 8e 1d bc
       0.07141705 0.019852113 -0.02161449 -0.009616391
000040 33 4f 10 3d ec c4 7c ba 65 5c 19 3d 29 f6 56 3b
       0.03523178 -0.0009642381 0.03744163 0.0032800531
000050 74 61 61 3c 3b ab 6b 3d 38 e0 49 bc 52 6d 1c 3d
       0.013756145 0.057536345 -0.012321524 0.038190193
000060 e6 02 85 bd 3e 8f a6 ba 40 7c 32 3d 2e c1 66 bc
       -0.064946935 -0.0012707484 0.043575525 -0.014084144
000070 64 8b 09 bc f6 c5 13 bd c7 9c 5f 3d 6e 59 20 bd
       -0.00839505 -0.036077462 0.054592874 -0.039147787
000080 7c 90 b8 bc 3a 1a e2 bc 71 f3 96 bc f9 b2 28 bc
       -0.022529833 -0.027600396 -0.018426629 -0.010296577
000090 b7 f2 dd bc 1f 7e 4c bd 29 02 a4 3c df 44 b0 3c
       -0.027093275 -0.049924966 0.020020561 0.021517215
0000a0 8a ec 27 bc 28 f5 24 bd 11 6e 36 3d 11 82 3c bd
       -0.010249266 -0.04027286 0.04453856 -0.04602248
0000b0 86 33 6e bc 6b 31 81 bd f1 3b d1 3b 3e 9d 2e bd
       -0.014538651 -0.06308254 0.0063853194 -0.042630427
0000c0 8d 87 f1 bc ad 6d bd 3b 8d ee 84 3d eb ea 8f 3b
       -0.029483581 0.0057808966 0.064908125 0.004392018
0000d0 26 6e 4b 3d a4 13 03 3b 33 77 44 bd 42 f7 66 bb
       0.049665593 0.002000072 -0.04796524 -0.0035242592
0000e0 17 1e 26 3b 97 cf 9d 3c 1c c2 61 3d 80 51 7d 3d
       0.0025347525 0.019264026 0.055116758 0.061845303
0000f0 8b a6 a6 3c c5 e3 a0 bd b8 54 82 bd 0c 0a 3a 3d
       0.020343086 -0.078559436 -0.06363815 0.045419738
000100 00 7c 42 3d 1d 07 c8 bc 40 03 ab 3b 77 56 c4 3c
       0.047481537 -0.024417454 0.0052188933 0.02396701
000110 34 e8 50 3d f0 3d dd b9 f5 39 fc 3b 47 ee c0 bc
       0.051002696 -0.00042198552 0.0076973387 -0.02355112
000120 5b 8f 89 bd 6a 61 9b 3d ee 4e cb 37 a9 9f 51 bd
       -0.06716796 0.0758694 2.423624e-05 -0.051177654
000130 18 8c 85 3c d3 82 81 3c ff 27 66 3c ed 43 88 bd
       0.016302153 0.015809452 0.014047622 -0.06653581
000140 9b 4a 7b 3d b5 64 d8 bc 29 7d 51 bd 70 83 a4 3c
       0.061350446 -0.026415208 -0.051144753 0.020082206
000150 51 e8 72 bd 07 58 55 bd 70 7d df 3c fb 83 c2 bc
       -0.059303585 -0.052085903 0.027281493 -0.023744574
000160 ea 18 73 3d a6 c1 47 3d c0 e2 43 bd d6 6c d1 3a
       0.05934993 0.048768662 -0.047823668 0.001597787
000170 e8 a4 76 bd bd 21 8c bc 53 f7 32 3b 7f 66 82 bd
       -0.06021586 -0.017105931 0.0027308061 -0.06367206
000180 eb 36 2a bc 4c 46 35 3d 91 9a 08 3d 95 2e 11 bd
       -0.01038907 0.044256493 0.03335053 -0.035444815
000190 8f 00 6f 3d f8 d4 5d bd 88 92 11 bd 53 59 1f bc
       0.058350142 -0.05415818 -0.035540134 -0.009725886
0001a0 ea 81 5d bd cd 6e 1c 3c d6 03 e5 bc 02 c1 33 bd
       -0.054078974 0.009547901 -0.02795593 -0.04388524
0001b0 a7 c2 c2 bb e7 ad 15 3c 1d 60 5a 3d 96 2b 87 3c
       -0.0059436145 0.0091357 0.053314317 0.016500276
0001c0 59 89 04 3d f0 3e 84 bd f2 b5 76 bd 6e 05 e5 bc
       0.032357547 -0.06457317 -0.06023211 -0.02795669
0001d0 ab 0e 77 3d e7 6c 49 bd 05 54 6f 3c 6e 3c 16 3c
       0.060316723 -0.049176123 0.014607434 0.009169681
0001e0 b1 7a 49 bc 0e 25 85 ba 83 0a aa 3c 34 ab a7 bb
       -0.012297318 -0.0010158138 0.020756966 -0.0051168445
0001f0 11 8d c2 bc 7c 1c 3a bd 1e e6 27 bd a0 a7 62 bd
       -0.023748906 -0.04543732 -0.04099094 -0.05533564
000200 80 4b 70 bd 1d 34 b2 bc 7d 3d 13 bd a9 31 4f bd
       -0.058665752 -0.021753365 -0.03594731 -0.05058447
000210 97 0b 8c 3d 65 d3 62 bd 33 d5 b8 3c 17 58 05 bc
       0.06838148 -0.055377383 0.022562599 -0.008138678
000220 d7 e4 b8 3b 1e 50 78 bc ca 7e 6a bd 62 a8 d7 bc
       0.005642514 -0.01515582 -0.05724982 -0.026325408
000230 48 28 97 bd 74 2c 6a 3b e9 29 87 3c 9d 36 63 3d
       -0.0738073 0.0035732063 0.016499477 0.055472005
000240 b1 6d 61 bd 23 40 22 bc b7 a0 1d 3d 02 7a 71 3d
       -0.05503625 -0.009902987 0.038483348 0.058954246
000250 24 b3 43 bd 94 ab 2e bd 60 9c 40 3d ee 12 b1 bc
       -0.047778264 -0.0426441 0.04702413 -0.021615472
000260 c8 12 c5 3c ed 10 64 3d 45 3c 52 bd 2d da d4 bc
       0.024056807 0.055680204 -0.05132701 -0.02598294
000270 27 67 cb bb 71 04 42 3d fa 64 f7 bc 18 e4 16 3d
       -0.006207365 0.047367517 -0.030199517 0.03683862
000280 95 dc 06 3d 3a 60 1e bc 5e ed 2f 3d 96 82 c2 3c
       0.032925207 -0.009666497 0.04295098 0.023743909
000290 a8 5d 63 3d f1 97 6c bc eb 9d 2a bd de fb 50 3d
       0.05550924 -0.0144405225 -0.04165451 0.05102145
0002a0 23 be 1a bd 41 31 84 bd 92 e1 09 bc 74 6b 43 3d
       -0.037778985 -0.06454707 -0.008415597 0.047709897
0002b0 e4 d8 23 3d 1d de 00 3d 6d 37 4e 3c a0 26 9b bc
       0.040001765 0.031461824 0.012586457 -0.018939316
0002c0 78 be 11 3d cc 6b 4b bc f8 9d f0 bc 1f 97 4b bd
       0.035582036 -0.0124158375 -0.0293722 -0.049704667
0002d0 1e 10 24 bd c5 81 71 bc 5b b7 80 3d 4a d2 43 3d
       -0.040054433 -0.014740412 0.06284972 0.04780797
0002e0 fd c9 29 3d b0 b2 3e 3d bc f8 43 bd 4d d2 7d 3c
       0.041452397 0.04655713 -0.047844633 0.015492034
0002f0 dd 37 df 3c 4b 1e 86 3d 44 63 04 bd e8 f3 58 bd
       0.027248317 0.06548747 -0.03232123 -0.052966982
000300 98 b2 e4 3c 4e 99 9b bc e4 fe 95 bc 89 47 82 3d
       0.027917191 -0.018994 -0.018310018 0.063613005
000310 e6 e1 b1 3c dc 0f 54 bd 37 fc 38 bd 90 a4 66 bd
       0.021714162 -0.051772937 -0.045162406 -0.056309283
000320 5f 12 6b bd 55 67 08 bc a3 56 e4 bc 69 81 20 3d
       -0.057390567 -0.0083254175 -0.027873343 0.039185915
000330 a5 02 48 bd e4 fb 92 bc dc 92 97 bc 56 d2 0a 3d
       -0.048830647 -0.017942376 -0.018502645 0.033892
000340 e3 f9 4d 3d 66 92 59 bd 4d b3 7a 3d 6c 0c 8a 3c
       0.05028714 -0.053118132 0.06120615 0.016851626
000350 7b b8 7d 3d 4d 2e 9b 3d bf 1c 26 3c ee a5 d6 3b
       0.061943512 0.075771905 0.01013869 0.006550542
000360 6e f9 7e 3c d0 f8 ff bb 30 b2 46 bd 0c e9 49 3d
       0.015562398 -0.007811643 -0.048509777 0.049294516
000370 87 2c 59 bd 9e ca b7 3b 48 01 6a bb 8d 28 d4 bc
       -0.05302098 0.0056088706 -0.003570633 -0.025898242
000380 04 5b 44 3d cd 42 a8 bc 2f e7 0b 3d 53 a5 d8 bc
       0.04793836 -0.020539666 0.03415602 -0.02644602
000390 ac 76 60 3c f3 8e 35 bc 58 67 9e 3d da 2c 0e 3d
       0.013700169 -0.011081445 0.07734555 0.034710743
0003a0 41 8a 82 3d c7 6f 14 3d f5 6a 3b bb f4 44 93 bd
       0.06374026 0.03623941 -0.0028597687 -0.07190886
0003b0 82 b2 65 3d 4e 1d fa 3c fe a4 61 3d 55 75 92 3c
       0.05607844 0.030531552 0.05508899 0.017878214
0003c0 60 1d 26 bd 4a 30 4d 3d f0 bf 02 3d 24 9d 44 3d
       -0.040555358 0.05009488 0.031921327 0.048001423
0003d0 14 d7 b6 3c 18 d9 b8 bb be 0c 68 3d 64 01 32 3d
       0.022319354 -0.005641114 0.056652777 0.043458357
0003e0 00 71 7d bd e0 04 23 3b f8 b4 3a bc 7f 30 6b bd
       -0.061875343 0.0024874732 -0.011395685 -0.057419296
0003f0 26 d3 7b bd 4c 71 4f bd 8e 6a 68 3d 2e e3 06 bd
       -0.061480664 -0.050645158 0.056742243 -0.0329315

fc2.bias f4 [120]
000000 da ec 3f 3d 08 5f 6c bd 0a 59 0d 3c fe c0 31 3d
       0.04685674 -0.057707816 0.008627186 0.043396942
000010 7f d3 5f 3d f4 75 18 3c 63 9e d3 bc 86 6e 6f bb
       0.054645058 0.009305466 -0.02583236 -0.0036534383
000020 1f 9d 67 bd f3 0e 55 3d fc df 8c 3c 4c 37 1d bd
       -0.056546327 0.05201621 0.017196648 -0.038382813
000030 81 dd 60 b9 fe ed 8f 3c cb 4e f0 3c 09 66 82 3c
       -0.00021444821 0.017569538 0.029334446 0.015917795
000040 50 b3 c8 3b 8c bf 20 3d af 91 11 3d 68 aa 4c bd
       0.0061248913 0.039245173 0.035539325 -0.0499672
000050 8c 58 6f 3d 2f 68 18 bb e4 43 30 3d e9 ad 4c 3c
       0.058434054 -0.0023255458 0.043033496 0.012492635
000060 77 1c c5 3c 3e 20 7d bd cd 85 00 bb 99 e7 bc 3b
       0.024061425 -0.061798327 -0.0019611001 0.0057649133
000070 37 af f3 3c db 8d ab 3c eb 68 3c 3d 1f 21 7a 3d
       0.029746635 0.020941665 0.045998495 0.061066743
000080 49 a0 89 bc 0a 71 d4 bc 1a d7 86 bd 33 17 47 bd
       -0.016800063 -0.025932807 -0.06583996 -0.04860611
000090 b0 30 fc 3c 2f 8a 85 3d cc 0a 50 3d 03 45 71 3d
       0.030784935 0.06520497 0.050791547 0.058903705
0000a0 89 09 5a 3c 44 75 54 3d 35 c9 e5 bb da 6c 2c bc
       0.013307937 0.051869646 -0.007012511 -0.010523999
0000b0 c7 23 5f 3d 9f 57 5d bd eb 74 72 3d 36 2d 45 bd
       0.05447748 -0.05403864 0.059193533 -0.04813882
0000c0 df d9 21 bd e4 ee 22 3d ed 07 33 3d df 22 c4 3c
       -0.03951442 0.039778605 0.04370873 0.02394241
0000d0 e9 bc 69 3d e2 c8 ef bc 6b bd 08 bd 67 f1 53 3d
       0.057064924 -0.029270593 -0.033383768 0.05174389
0000e0 0e c9 ca 3c e4 65 c8 bc e5 1d 35 3d ef 59 8c 3d
       0.024754073 -0.024462648 0.044217963 0.06853091
0000f0 fe e0 91 bc 59 fb cd bb 15 dc 21 3d b8 88 15 3b
       -0.01780748 -0.0062860665 0.039516527 0.0022817086
000100 f3 70 4e 3d cf 5f 7b 3d 3c 18 2c 3d b0 d9 20 bd
       0.050400686 0.061370667 0.0420153 -0.039270103
000110 99 2c ad 3c 13 ab 2e 3d dd 1a 86 3d 80 e1 09 3d
       0.02113943 0.042643618 0.065480925 0.03366232
000120 96 2d 32 3d f0 45 34 3d bf 3f 8c 39 05 de 10 3d
       0.043500505 0.04401201 0.00026750375 0.035367984
000130 47 2d 04 3d b6 28 e5 3c 46 74 da 3c 26 fe 3a bd
       0.032269742 0.027973514 0.026666772 -0.04565253
000140 d9 b9 1b bc 27 c1 b6 bc 2b 9c 6a 3d 03 19 17 3d
       -0.009504759 -0.0223089 0.05727784 0.036889087
000150 e8 21 22 3b 80 82 ce 3c a3 38 87 ba d0 a2 66 3c
       0.0024739448 0.025208712 -0.0010316562 0.014076903
000160 4e 54 8f 3c 6d fc be 3c 0a 26 61 3d aa 2f 7f bc
       0.017496254 0.023313725 0.054967918 -0.015575329
000170 1e 02 40 bd 7b fa 5e 3d 33 07 44 3d 19 46 3c 3d
       -0.04687702 0.054438096 0.04785843 0.045965288
000180 a9 da 3d bc 17 06 b7 bc f1 49 62 3c ee 57 d1 bc
       -0.011587777 -0.022341771 0.013811574 -0.025554623
000190 29 ea c5 bc 2d d2 00 bd dd 17 cf bc 58 d8 4f bb
       -0.024159508 -0.03145044 -0.025279934 -0.0031714644
0001a0 82 b7 a1 3c e6 e6 55 3c 40 30 97 3d bd 20 bd bc
       0.019740824 0.013055539 0.0738225 -0.0230869
0001b0 e7 81 07 3d a5 38 28 3d 84 0b 46 3d 6e 4b 51 3d
       0.03308287 0.041069645 0.048350826 0.051097326
0001c0 35 26 db 3c b7 1b c2 bc 2e 61 95 3c 52 62 24 3d
       0.026751617 -0.023694856 0.018234815 0.040132828
0001d0 6a 0f 7a 3d 06 92 cf bc 84 7f e6 3c 73 07 a4 3c
       0.061049856 -0.025338184 0.028136976 0.020023083

fc3.weight f4 [6, 120]
000000 6c f8 1e bd 04 df b6 3d cd e4 0d 3e b1 8e 30 3b
       -0.038811132 0.089292556 0.13856812 0.002694052
000010 09 5b 98 3d da e2 f8 3d 4e 13 70 ba 5a 5c ad be
       0.074392386 0.121526435 -0.000915815 -0.3385952
000020 66 f5 8e bd b3 ad 81 3d d0 a0 00 be 89 27 9f 3d
       -0.069804 0.063319586 -0.12561345 0.077712126
000030 80 db 86 bd 4d 5e aa 3e 16 34 66 bd ad 9e 4c 3e
       -0.06584835 0.3327507 -0.056202017 0.19982405
000040 3d a7 91 bd 33 80 1b be da d4 9f 3d 59 9e 90 3d
       -0.07111976 -0.15185623 0.0780427 0.070614524
000050 c7 85 8b 3d 61 05 22 bd ed 42 9e be 52 e9 75 3b
       0.068126254 -0.03955591 -0.30910435 0.0037523103
000060 ec 58 0e 3e 89 59 6f be 31 e6 c5 bc 9a 15 c8 3c
       0.13901109 -0.23373999 -0.024157615 0.024424363
000070 9c 87 28 3e 3c 7a b3 be 34 d6 96 bc 2a b5 32 be
       0.16457981 -0.35054195 -0.018412687 -0.17451921
000080 10 4a 8c 3e 7e ed 45 bd bb aa 8e bd cb b1 b4 3d
       0.27400255 -0.048322193 -0.06966158 0.08822974
000090 af 1d 10 3d 40 d9 20 3e a1 95 71 3d 62 03 64 be
       0.03518456 0.15707874 0.058980588 -0.22266915
0000a0 3d b1 fc bd 09 aa 0f 3e 47 25 43 bd 95 51 64 3e
       -0.12338493 0.14029707 -0.047642972 0.22296746
0000b0 61 ab 2f 3e 03 27 10 be c6 3a fb 3d 52 7c 04 be
       0.1715522 -0.14077382 0.122670695 -0.1293805
0000c0 d3 f6 f4 bd c0 42 95 bd 93 22 fa bd 71 61 20 3e
       -0.119611405 -0.07288122 -0.12213626 0.15662171
0000d0 a6 ec ad bc 7b 8f 26 be e7 95 c3 bc b9 f0 ac 3d
       -0.021231007 -0.16265671 -0.02387519 0.08444352
0000e0 0b 95 1a bd 78 8a 1d bc cf 68 b8 bd d8 d0 8f bd
       -0.037739795 -0.009615533 -0.09004366 -0.07022256
0000f0 7a 4a 86 bd 2c 28 09 3c 47 4e 3f 3c c2 4b ed bc
       -0.06557174 0.008371394 0.011676378 -0.028966788
000100 fd b9 4b 3d fd 6a c2 3c 66 cc a8 3c 70 66 00 bc
       0.04973792 0.023732657 0.020605277 -0.007836923
000110 97 38 40 bc 9b 21 88 3e 6f 2e e7 3d 2f 16 43 3d
       -0.011732242 0.2658814 0.112881534 0.047628578
000120 2a f0 70 3e 47 6c f0 bc d0 9b fe bc b3 80 cb bd
       0.23529115 -0.029348506 -0.031080157 -0.09936657
000130 91 7c 26 3d f5 93 46 be 91 39 a9 bc da dd a0 3d
       0.04064614 -0.19392379 -0.020657333 0.07854815
000140 d1 33 5c be b8 e0 81 3e d9 6b 3d bd 97 5e 8a 3d
       -0.21504141 0.2536676 -0.04624543 0.06756323
000150 dc 2a c0 3e d6 aa c5 bc 7c 8a ae bd 1d 4f 91 3e
       0.375327 -0.024129312 -0.085225075 0.2838067
000160 49 85 23 be ff fe 89 3d 8b 1a 35 3e 30 c6 97 3d
       -0.15968813 0.0673809 0.17685907 0.07410848
000170 e6 bd 6c be 3d 0d c3 bd 8b c3 36 3e 2d b4 12 be
       -0.23119316 -0.095240094 0.17848031 -0.14326544
000180 a2 fb 80 bd 7f b2 5c bd b0 74 98 bd d2 6b 3c bd
       -0.06297995 -0.053881165 -0.074441314 -0.046001263
000190 2a f3 89 bd cb 47 15 be 77 f3 24 3d 0e c7 21 3c
       -0.06735833 -0.14578168 0.04027125 0.0098741185
0001a0 e5 26 0b be f4 df d4 3d da b5 87 3d 35 6f a2 bd
       -0.13589056 0.10394278 0.06626482 -0.07931367
0001b0 28 18 8a bd 97 38 73 bd ac 19 44 be 5e b2 c9 3d
       -0.06742889 -0.05938014 -0.19150418 0.09848474
0001c0 40 77 40 be a4 e7 dd bd c0 e7 80 3e 99 47 8f bc
       -0.1879549 -0.108351976 0.2517681 -0.017490195
0001d0 6f 04 03 3b 4e 49 88 3d 16 23 8c bd bf db 52 3e
       0.0019991656 0.06654607 -0.068426296 0.20591639
0001e0 5e e2 2b bd 00 4e 01 39 c6 e0 7a 3e d0 04 ac 3e
       -0.041963927 0.00012331456 0.24499807 0.33597422
0001f0 90 d5 d0 bd 5d 60 09 3e d5 55 c2 3a ac 8a 72 3e
       -0.10196984 0.13415666 0.0014826605 0.23685712
000200 b4 d1 dd bb af 74 26 3e 88 9c f9 bd 08 8e dc bc
       -0.0067693833 0.16255449 -0.12188059 -0.026923195
000210 a9 82 b9 bd 9b d1 62 be b1 e3 32 3c 2f b9 3c 3d
       -0.090581246 -0.2215027 0.010918544 0.046075042
000220 00 fb ad 3c 9d fb 35 3d 53 9e af 3d 26 6f 8e bc
       0.02123785 0.04442941 0.0857512 -0.017386984
000230 3b 36 9c bc 99 91 06 bd b8 db a9 3e d3 99 1b 3d
       -0.019068828 -0.032853696 0.33175445 0.037988495
000240 fc 11 17 bc bd 34 d7 bd 60 c0 1c 3d be 6f f4 3d
       -0.009220596 -0.10508106 0.0382694 0.11935376
000250 c4 c6 6a 3d ad 8b 67 3e d5 e9 85 bc e6 5d 43 be
       0.057318464 0.22611876 -0.016346851 -0.19078788
000260 b3 de 58 3e cc 09 82 bd e0 52 81 3d 1e 44 52 3d
       0.21178703 -0.06349525 0.06314635 0.051334493
000270 a2 f1 02 bd de 16 41 be 61 8d a8 3d fd c1 8c 3e
       -0.03196872 -0.1885638 0.08230091 0.2749175
000280 a3 d9 48 bd eb 56 4f 3e 0f e8 1c 3e 04 46 06 be
       -0.04903568 0.20248 0.15322898 -0.13112646
000290 44 e1 0c be 32 6f 2e be a8 4a 34 bc 46 f5 cd bd
       -0.13757807 -0.17034605 -0.011004128 -0.10056548
0002a0 fb c7 0a be 53 a0 30 3e 28 8a a5 3d 1e 3c a3 bd
       -0.13552849 0.17248659 0.08082992 -0.07970451
0002b0 be 17 52 3d 4e e7 16 be b3 87 a3 bd 5d 45 a0 bd
       0.051292174 -0.14736673 -0.07984867 -0.0782573
0002c0 81 98 73 3e a0 11 93 bb 6a 8f 7c 3d dd 20 32 3e
       0.23788644 -0.004488185 0.061660208 0.17395349
0002d0 6b 05 92 bc 03 86 48 be 3c 70 b0 bd 81 c6 6b 3d
       -0.01782485 -0.19582371 -0.08615157 0.057562355
0002e0 e2 17 61 bd 9a 33 ab 3d c2 91 98 3c a4 a0 c3 bc
       -0.054954417 0.083594516 0.01862419 -0.02388031
0002f0 48 e8 fe bd 45 fe 4b be 27 1d 64 3d 9d a9 8a 3d
       -0.12446648 -0.19921215 0.055691864 0.067706324
000300 e2 ad 24 be a0 40 3f bd 5f eb 9c 3d 71 78 fe bc
       -0.16081956 -0.04669249 0.07662081 -0.03106329
000310 de bf 14 bc b1 9e c1 3d 42 70 a1 3d c8 86 c3 3c
       -0.009078948 0.09454096 0.078827396 0.02386798
000320 c0 15 0c be 11 40 ce bd 2b 45 40 3b 7a 44 35 3d
       -0.13680172 -0.100708134 0.0029338102 0.044254757
000330 c7 cd 80 3b ec 8d 5f 3d 14 3e 15 be fe fc 8a bd
       0.0039307806 0.054578707 -0.14574462 -0.06786536
000340 fd 31 30 bd 5a a8 86 3d bb 90 b8 bd 4e 9d 94 bb
       -0.043016423 0.06575079 -0.0901198 -0.0045353537
000350 1e 8b a6 3e 72 55 67 be 67 19 d3 3d 53 43 89 bd
       0.32528013 -0.22591189 0.103075795 -0.06702294
000360 a1 63 3b 3d 27 87 61 bb 37 36 1c bc a3 52 43 bd
       0.04574931 -0.0034412832 -0.00953441 -0.04768623
000370 30 92 c8 3c 38 d3 81 3e 73 eb 04 bc 1f 89 b0 bd
       0.02448377 0.2535646 -0.008112776 -0.08619904
000380 9c 1c 78 be 82 e7 9d bd 45 2f df 3d 22 8b 12 be
       -0.24229664 -0.07710172 0.10897688 -0.14310887
000390 bd 43 74 bd 6c df dc bd c9 23 74 bd 48 cd 17 be
       -0.059634913 -0.10784802 -0.05960444 -0.14824402
0003a0 30 6b 8b 3d 93 a0 de bb 60 9e e9 bd e3 af b6 3d
       0.06807554 -0.0067940443 -0.11407161 0.089202665
0003b0 9a 7d d2 bc a0 b4 76 3d 28 45 3a 3d 2c 09 b2 bc
       -0.025694657 0.06023085 0.04547611 -0.02173289
0003c0 0d 35 e4 3b 18 8f 4d 3d f9 89 03 be 1c 3c ef bd
       0.006964332 0.050185293 -0.12845601 -0.11681387
0003d0 84 f3 25 3e c0 99 35 3e e0 f8 01 3d 98 6a 5b 3d
       0.16206175 0.17734432 0.031731486 0.053568453
0003e0 69 63 a9 3d 5c 2c 1a be fa cb a1 3d 17 ec c7 be
       0.08270914 -0.15055984 0.079002336 -0.3904731
0003f0 60 65 77 3b 20 e2 42 3d a0 e0 08 bd b7 7a 8c bd
       0.0037749633 0.04757893 -0.033417344 -0.068593435

fc3.bias f4 [6]
000000 39 af 1a 3d 47 27 94 3d fa f3 66 3c 87 b1 27 3d
       0.03776476 0.07234054 0.0140962545 0.040940788
000010 1e 90 01 bd 08 fd 6d bd
       -0.03163158 -0.058102638
